…
/solutions/2nd-place//image_list/val0.txt
set dataset mode: train
data num: 52542
/solutions/2nd-place//bbox_model/se50_bbox.csv
/solutions/2nd-place//bbox_model/se101_bbox.csv
5005
fold index set:  0
/solutions/2nd-place//image_list/val0.txt
set dataset mode: val
data num: 600
/solutions/2nd-place//bbox_model/se50_bbox.csv
/solutions/2nd-place//bbox_model/se101_bbox.csv
5005
fold index set:  0
/solutions/2nd-place//image_list/val0.txt
set dataset mode: val
data num: 600
Load imagenet pretrained SERESNEXT101
DataParallel(
  (module): Net(
    (basemodel): SENet(
      (layer0): Sequential(
        (conv1): Conv2d(3, 64, kernel_size=(7, 7), stride=(2, 2), padding=(3, 3), bias=False)
        (bn1): BatchNorm2d(64, eps=1e-05, momentum=0.1, affine=True, track_running_stats=True)
        (relu1): ReLU(inplace=True)
        (pool): MaxPool2d(kernel_size=3, stride=2, padding=0, dilation=1, ceil_mode=True)
      )
      (layer1): Sequential(
        (0): SEResNeXtBottleneck(
          (conv1): Conv2d(64, 128, kernel_size=(1, 1), stride=(1, 1), bias=False)
          (bn1): BatchNorm2d(128, eps=1e-05, momentum=0.1, affine=True, track_running_stats=True)
          (conv2): Conv2d(128, 128, kernel_size=(3, 3), stride=(1, 1), padding=(1, 1), groups=32, bias=False)
          (bn2): BatchNorm2d(128, eps=1e-05, momentum=0.1, affine=True, track_running_stats=True)
          (conv3): Conv2d(128, 256, kernel_size=(1, 1), stride=(1, 1), bias=False)
          (bn3): BatchNorm2d(256, eps=1e-05, momentum=0.1, affine=True, track_running_stats=True)
          (relu): ReLU(inplace=True)
          (se_module): SEModule(
            (avg_pool): AdaptiveAvgPool2d(output_size=1)
            (fc1): Conv2d(256, 16, kernel_size=(1, 1), stride=(1, 1))
            (relu): ReLU(inplace=True)
            (fc2): Conv2d(16, 256, kernel_size=(1, 1), stride=(1, 1))
            (sigmoid): Sigmoid()
          )
          (downsample): Sequential(
            (0): Conv2d(64, 256, kernel_size=(1, 1), stride=(1, 1), bias=False)
            (1): BatchNorm2d(256, eps=1e-05, momentum=0.1, affine=True, track_running_stats=True)
          )
        )
        (1): SEResNeXtBottleneck(
          (conv1): Conv2d(256, 128, kernel_size=(1, 1), stride=(1, 1), bias=False)
          (bn1): BatchNorm2d(128, eps=1e-05, momentum=0.1, affine=True, track_running_stats=True)
          (conv2): Conv2d(128, 128, kernel_size=(3, 3), stride=(1, 1), padding=(1, 1), groups=32, bias=False)
          (bn2): BatchNorm2d(128, eps=1e-05, momentum=0.1, affine=True, track_running_stats=True)
          (conv3): Conv2d(128, 256, kernel_size=(1, 1), stride=(1, 1), bias=False)
          (bn3): BatchNorm2d(256, eps=1e-05, momentum=0.1, affine=True, track_running_stats=True)
          (relu): ReLU(inplace=True)
          (se_module): SEModule(
            (avg_pool): AdaptiveAvgPool2d(output_size=1)
            (fc1): Conv2d(256, 16, kernel_size=(1, 1), stride=(1, 1))
            (relu): ReLU(inplace=True)
            (fc2): Conv2d(16, 256, kernel_size=(1, 1), stride=(1, 1))
            (sigmoid): Sigmoid()
          )
        )
        (2): SEResNeXtBottleneck(
          (conv1): Conv2d(256, 128, kernel_size=(1, 1), stride=(1, 1), bias=False)
          (bn1): BatchNorm2d(128, eps=1e-05, momentum=0.1, affine=True, track_running_stats=True)
          (conv2): Conv2d(128, 128, kernel_size=(3, 3), stride=(1, 1), padding=(1, 1), groups=32, bias=False)
          (bn2): BatchNorm2d(128, eps=1e-05, momentum=0.1, affine=True, track_running_stats=True)
          (conv3): Conv2d(128, 256, kernel_size=(1, 1), stride=(1, 1), bias=False)
          (bn3): BatchNorm2d(256, eps=1e-05, momentum=0.1, affine=True, track_running_stats=True)
          (relu): ReLU(inplace=True)
          (se_module): SEModule(
            (avg_pool): AdaptiveAvgPool2d(output_size=1)
            (fc1): Conv2d(256, 16, kernel_size=(1, 1), stride=(1, 1))
            (relu): ReLU(inplace=True)
            (fc2): Conv2d(16, 256, kernel_size=(1, 1), stride=(1, 1))
            (sigmoid): Sigmoid()
          )
        )
      )
      (layer2): Sequential(
        (0): SEResNeXtBottleneck(
          (conv1): Conv2d(256, 256, kernel_size=(1, 1), stride=(1, 1), bias=False)
          (bn1): BatchNorm2d(256, eps=1e-05, momentum=0.1, affine=True, track_running_stats=True)
          (conv2): Conv2d(256, 256, kernel_size=(3, 3), stride=(2, 2), padding=(1, 1), groups=32, bias=False)
          (bn2): BatchNorm2d(256, eps=1e-05, momentum=0.1, affine=True, track_running_stats=True)
          (conv3): Conv2d(256, 512, kernel_size=(1, 1), stride=(1, 1), bias=False)
          (bn3): BatchNorm2d(512, eps=1e-05, momentum=0.1, affine=True, track_running_stats=True)
          (relu): ReLU(inplace=True)
          (se_module): SEModule(
            (avg_pool): AdaptiveAvgPool2d(output_size=1)
            (fc1): Conv2d(512, 32, kernel_size=(1, 1), stride=(1, 1))
            (relu): ReLU(inplace=True)
            (fc2): Conv2d(32, 512, kernel_size=(1, 1), stride=(1, 1))
            (sigmoid): Sigmoid()
          )
          (downsample): Sequential(
            (0): Conv2d(256, 512, kernel_size=(1, 1), stride=(2, 2), bias=False)
            (1): BatchNorm2d(512, eps=1e-05, momentum=0.1, affine=True, track_running_stats=True)
          )
        )
        (1): SEResNeXtBottleneck(
          (conv1): Conv2d(512, 256, kernel_size=(1, 1), stride=(1, 1), bias=False)
          (bn1): BatchNorm2d(256, eps=1e-05, momentum=0.1, affine=True, track_running_stats=True)
          (conv2): Conv2d(256, 256, kernel_size=(3, 3), stride=(1, 1), padding=(1, 1), groups=32, bias=False)
          (bn2): BatchNorm2d(256, eps=1e-05, momentum=0.1, affine=True, track_running_stats=True)
          (conv3): Conv2d(256, 512, kernel_size=(1, 1), stride=(1, 1), bias=False)
          (bn3): BatchNorm2d(512, eps=1e-05, momentum=0.1, affine=True, track_running_stats=True)
          (relu): ReLU(inplace=True)
          (se_module): SEModule(
            (avg_pool): AdaptiveAvgPool2d(output_size=1)
            (fc1): Conv2d(512, 32, kernel_size=(1, 1), stride=(1, 1))
            (relu): ReLU(inplace=True)
            (fc2): Conv2d(32, 512, kernel_size=(1, 1), stride=(1, 1))
            (sigmoid): Sigmoid()
          )
        )
        (2): SEResNeXtBottleneck(
          (conv1): Conv2d(512, 256, kernel_size=(1, 1), stride=(1, 1), bias=False)
          (bn1): BatchNorm2d(256, eps=1e-05, momentum=0.1, affine=True, track_running_stats=True)
          (conv2): Conv2d(256, 256, kernel_size=(3, 3), stride=(1, 1), padding=(1, 1), groups=32, bias=False)
          (bn2): BatchNorm2d(256, eps=1e-05, momentum=0.1, affine=True, track_running_stats=True)
          (conv3): Conv2d(256, 512, kernel_size=(1, 1), stride=(1, 1), bias=False)
          (bn3): BatchNorm2d(512, eps=1e-05, momentum=0.1, affine=True, track_running_stats=True)
          (relu): ReLU(inplace=True)
          (se_module): SEModule(
            (avg_pool): AdaptiveAvgPool2d(output_size=1)
            (fc1): Conv2d(512, 32, kernel_size=(1, 1), stride=(1, 1))
            (relu): ReLU(inplace=True)
            (fc2): Conv2d(32, 512, kernel_size=(1, 1), stride=(1, 1))
            (sigmoid): Sigmoid()
          )
        )
        (3): SEResNeXtBottleneck(
          (conv1): Conv2d(512, 256, kernel_size=(1, 1), stride=(1, 1), bias=False)
          (bn1): BatchNorm2d(256, eps=1e-05, momentum=0.1, affine=True, track_running_stats=True)
          (conv2): Conv2d(256, 256, kernel_size=(3, 3), stride=(1, 1), padding=(1, 1), groups=32, bias=False)
          (bn2): BatchNorm2d(256, eps=1e-05, momentum=0.1, affine=True, track_running_stats=True)
          (conv3): Conv2d(256, 512, kernel_size=(1, 1), stride=(1, 1), bias=False)
          (bn3): BatchNorm2d(512, eps=1e-05, momentum=0.1, affine=True, track_running_stats=True)
          (relu): ReLU(inplace=True)
          (se_module): SEModule(
            (avg_pool): AdaptiveAvgPool2d(output_size=1)
            (fc1): Conv2d(512, 32, kernel_size=(1, 1), stride=(1, 1))
            (relu): ReLU(inplace=True)
            (fc2): Conv2d(32, 512, kernel_size=(1, 1), stride=(1, 1))
            (sigmoid): Sigmoid()
          )
        )
      )
      (layer3): Sequential(
        (0): SEResNeXtBottleneck(
          (conv1): Conv2d(512, 512, kernel_size=(1, 1), stride=(1, 1), bias=False)
          (bn1): BatchNorm2d(512, eps=1e-05, momentum=0.1, affine=True, track_running_stats=True)
          (conv2): Conv2d(512, 512, kernel_size=(3, 3), stride=(2, 2), padding=(1, 1), groups=32, bias=False)
          (bn2): BatchNorm2d(512, eps=1e-05, momentum=0.1, affine=True, track_running_stats=True)
          (conv3): Conv2d(512, 1024, kernel_size=(1, 1), stride=(1, 1), bias=False)
          (bn3): BatchNorm2d(1024, eps=1e-05, momentum=0.1, affine=True, track_running_stats=True)
          (relu): ReLU(inplace=True)
          (se_module): SEModule(
            (avg_pool): AdaptiveAvgPool2d(output_size=1)
            (fc1): Conv2d(1024, 64, kernel_size=(1, 1), stride=(1, 1))
            (relu): ReLU(inplace=True)
            (fc2): Conv2d(64, 1024, kernel_size=(1, 1), stride=(1, 1))
            (sigmoid): Sigmoid()
          )
          (downsample): Sequential(
            (0): Conv2d(512, 1024, kernel_size=(1, 1), stride=(2, 2), bias=False)
            (1): BatchNorm2d(1024, eps=1e-05, momentum=0.1, affine=True, track_running_stats=True)
          )
        )
        (1): SEResNeXtBottleneck(
          (conv1): Conv2d(1024, 512, kernel_size=(1, 1), stride=(1, 1), bias=False)
          (bn1): BatchNorm2d(512, eps=1e-05, momentum=0.1, affine=True, track_running_stats=True)
          (conv2): Conv2d(512, 512, kernel_size=(3, 3), stride=(1, 1), padding=(1, 1), groups=32, bias=False)
          (bn2): BatchNorm2d(512, eps=1e-05, momentum=0.1, affine=True, track_running_stats=True)
          (conv3): Conv2d(512, 1024, kernel_size=(1, 1), stride=(1, 1), bias=False)
          (bn3): BatchNorm2d(1024, eps=1e-05, momentum=0.1, affine=True, track_running_stats=True)
          (relu): ReLU(inplace=True)
          (se_module): SEModule(
            (avg_pool): AdaptiveAvgPool2d(output_size=1)
            (fc1): Conv2d(1024, 64, kernel_size=(1, 1), stride=(1, 1))
            (relu): ReLU(inplace=True)
            (fc2): Conv2d(64, 1024, kernel_size=(1, 1), stride=(1, 1))
            (sigmoid): Sigmoid()
          )
        )
        (2): SEResNeXtBottleneck(
          (conv1): Conv2d(1024, 512, kernel_size=(1, 1), stride=(1, 1), bias=False)
          (bn1): BatchNorm2d(512, eps=1e-05, momentum=0.1, affine=True, track_running_stats=True)
          (conv2): Conv2d(512, 512, kernel_size=(3, 3), stride=(1, 1), padding=(1, 1), groups=32, bias=False)
          (bn2): BatchNorm2d(512, eps=1e-05, momentum=0.1, affine=True, track_running_stats=True)
          (conv3): Conv2d(512, 1024, kernel_size=(1, 1), stride=(1, 1), bias=False)
          (bn3): BatchNorm2d(1024, eps=1e-05, momentum=0.1, affine=True, track_running_stats=True)
          (relu): ReLU(inplace=True)
          (se_module): SEModule(
            (avg_pool): AdaptiveAvgPool2d(output_size=1)
            (fc1): Conv2d(1024, 64, kernel_size=(1, 1), stride=(1, 1))
            (relu): ReLU(inplace=True)
            (fc2): Conv2d(64, 1024, kernel_size=(1, 1), stride=(1, 1))
            (sigmoid): Sigmoid()
          )
        )
        (3): SEResNeXtBottleneck(
          (conv1): Conv2d(1024, 512, kernel_size=(1, 1), stride=(1, 1), bias=False)
          (bn1): BatchNorm2d(512, eps=1e-05, momentum=0.1, affine=True, track_running_stats=True)
          (conv2): Conv2d(512, 512, kernel_size=(3, 3), stride=(1, 1), padding=(1, 1), groups=32, bias=False)
          (bn2): BatchNorm2d(512, eps=1e-05, momentum=0.1, affine=True, track_running_stats=True)
          (conv3): Conv2d(512, 1024, kernel_size=(1, 1), stride=(1, 1), bias=False)
          (bn3): BatchNorm2d(1024, eps=1e-05, momentum=0.1, affine=True, track_running_stats=True)
          (relu): ReLU(inplace=True)
          (se_module): SEModule(
            (avg_pool): AdaptiveAvgPool2d(output_size=1)
            (fc1): Conv2d(1024, 64, kernel_size=(1, 1), stride=(1, 1))
            (relu): ReLU(inplace=True)
            (fc2): Conv2d(64, 1024, kernel_size=(1, 1), stride=(1, 1))
            (sigmoid): Sigmoid()
          )
        )
        (4): SEResNeXtBottleneck(
          (conv1): Conv2d(1024, 512, kernel_size=(1, 1), stride=(1, 1), bias=False)
          (bn1): BatchNorm2d(512, eps=1e-05, momentum=0.1, affine=True, track_running_stats=True)
          (conv2): Conv2d(512, 512, kernel_size=(3, 3), stride=(1, 1), padding=(1, 1), groups=32, bias=False)
          (bn2): BatchNorm2d(512, eps=1e-05, momentum=0.1, affine=True, track_running_stats=True)
          (conv3): Conv2d(512, 1024, kernel_size=(1, 1), stride=(1, 1), bias=False)
          (bn3): BatchNorm2d(1024, eps=1e-05, momentum=0.1, affine=True, track_running_stats=True)
          (relu): ReLU(inplace=True)
          (se_module): SEModule(
            (avg_pool): AdaptiveAvgPool2d(output_size=1)
            (fc1): Conv2d(1024, 64, kernel_size=(1, 1), stride=(1, 1))
            (relu): ReLU(inplace=True)
            (fc2): Conv2d(64, 1024, kernel_size=(1, 1), stride=(1, 1))
            (sigmoid): Sigmoid()
          )
        )
        (5): SEResNeXtBottleneck(
          (conv1): Conv2d(1024, 512, kernel_size=(1, 1), stride=(1, 1), bias=False)
          (bn1): BatchNorm2d(512, eps=1e-05, momentum=0.1, affine=True, track_running_stats=True)
          (conv2): Conv2d(512, 512, kernel_size=(3, 3), stride=(1, 1), padding=(1, 1), groups=32, bias=False)
          (bn2): BatchNorm2d(512, eps=1e-05, momentum=0.1, affine=True, track_running_stats=True)
          (conv3): Conv2d(512, 1024, kernel_size=(1, 1), stride=(1, 1), bias=False)
          (bn3): BatchNorm2d(1024, eps=1e-05, momentum=0.1, affine=True, track_running_stats=True)
          (relu): ReLU(inplace=True)
          (se_module): SEModule(
            (avg_pool): AdaptiveAvgPool2d(output_size=1)
            (fc1): Conv2d(1024, 64, kernel_size=(1, 1), stride=(1, 1))
            (relu): ReLU(inplace=True)
            (fc2): Conv2d(64, 1024, kernel_size=(1, 1), stride=(1, 1))
            (sigmoid): Sigmoid()
          )
        )
        (6): SEResNeXtBottleneck(
          (conv1): Conv2d(1024, 512, kernel_size=(1, 1), stride=(1, 1), bias=False)
          (bn1): BatchNorm2d(512, eps=1e-05, momentum=0.1, affine=True, track_running_stats=True)
          (conv2): Conv2d(512, 512, kernel_size=(3, 3), stride=(1, 1), padding=(1, 1), groups=32, bias=False)
          (bn2): BatchNorm2d(512, eps=1e-05, momentum=0.1, affine=True, track_running_stats=True)
          (conv3): Conv2d(512, 1024, kernel_size=(1, 1), stride=(1, 1), bias=False)
          (bn3): BatchNorm2d(1024, eps=1e-05, momentum=0.1, affine=True, track_running_stats=True)
          (relu): ReLU(inplace=True)
          (se_module): SEModule(
            (avg_pool): AdaptiveAvgPool2d(output_size=1)
            (fc1): Conv2d(1024, 64, kernel_size=(1, 1), stride=(1, 1))
            (relu): ReLU(inplace=True)
            (fc2): Conv2d(64, 1024, kernel_size=(1, 1), stride=(1, 1))
            (sigmoid): Sigmoid()
          )
        )
        (7): SEResNeXtBottleneck(
          (conv1): Conv2d(1024, 512, kernel_size=(1, 1), stride=(1, 1), bias=False)
          (bn1): BatchNorm2d(512, eps=1e-05, momentum=0.1, affine=True, track_running_stats=True)
          (conv2): Conv2d(512, 512, kernel_size=(3, 3), stride=(1, 1), padding=(1, 1), groups=32, bias=False)
          (bn2): BatchNorm2d(512, eps=1e-05, momentum=0.1, affine=True, track_running_stats=True)
          (conv3): Conv2d(512, 1024, kernel_size=(1, 1), stride=(1, 1), bias=False)
          (bn3): BatchNorm2d(1024, eps=1e-05, momentum=0.1, affine=True, track_running_stats=True)
          (relu): ReLU(inplace=True)
          (se_module): SEModule(
            (avg_pool): AdaptiveAvgPool2d(output_size=1)
            (fc1): Conv2d(1024, 64, kernel_size=(1, 1), stride=(1, 1))
            (relu): ReLU(inplace=True)
            (fc2): Conv2d(64, 1024, kernel_size=(1, 1), stride=(1, 1))
            (sigmoid): Sigmoid()
          )
        )
        (8): SEResNeXtBottleneck(
          (conv1): Conv2d(1024, 512, kernel_size=(1, 1), stride=(1, 1), bias=False)
          (bn1): BatchNorm2d(512, eps=1e-05, momentum=0.1, affine=True, track_running_stats=True)
          (conv2): Conv2d(512, 512, kernel_size=(3, 3), stride=(1, 1), padding=(1, 1), groups=32, bias=False)
          (bn2): BatchNorm2d(512, eps=1e-05, momentum=0.1, affine=True, track_running_stats=True)
          (conv3): Conv2d(512, 1024, kernel_size=(1, 1), stride=(1, 1), bias=False)
          (bn3): BatchNorm2d(1024, eps=1e-05, momentum=0.1, affine=True, track_running_stats=True)
          (relu): ReLU(inplace=True)
          (se_module): SEModule(
            (avg_pool): AdaptiveAvgPool2d(output_size=1)
            (fc1): Conv2d(1024, 64, kernel_size=(1, 1), stride=(1, 1))
            (relu): ReLU(inplace=True)
            (fc2): Conv2d(64, 1024, kernel_size=(1, 1), stride=(1, 1))
            (sigmoid): Sigmoid()
          )
        )
        (9): SEResNeXtBottleneck(
          (conv1): Conv2d(1024, 512, kernel_size=(1, 1), stride=(1, 1), bias=False)
          (bn1): BatchNorm2d(512, eps=1e-05, momentum=0.1, affine=True, track_running_stats=True)
          (conv2): Conv2d(512, 512, kernel_size=(3, 3), stride=(1, 1), padding=(1, 1), groups=32, bias=False)
          (bn2): BatchNorm2d(512, eps=1e-05, momentum=0.1, affine=True, track_running_stats=True)
          (conv3): Conv2d(512, 1024, kernel_size=(1, 1), stride=(1, 1), bias=False)
          (bn3): BatchNorm2d(1024, eps=1e-05, momentum=0.1, affine=True, track_running_stats=True)
          (relu): ReLU(inplace=True)
          (se_module): SEModule(
            (avg_pool): AdaptiveAvgPool2d(output_size=1)
            (fc1): Conv2d(1024, 64, kernel_size=(1, 1), stride=(1, 1))
            (relu): ReLU(inplace=True)
            (fc2): Conv2d(64, 1024, kernel_size=(1, 1), stride=(1, 1))
            (sigmoid): Sigmoid()
          )
        )
        (10): SEResNeXtBottleneck(
          (conv1): Conv2d(1024, 512, kernel_size=(1, 1), stride=(1, 1), bias=False)
          (bn1): BatchNorm2d(512, eps=1e-05, momentum=0.1, affine=True, track_running_stats=True)
          (conv2): Conv2d(512, 512, kernel_size=(3, 3), stride=(1, 1), padding=(1, 1), groups=32, bias=False)
          (bn2): BatchNorm2d(512, eps=1e-05, momentum=0.1, affine=True, track_running_stats=True)
          (conv3): Conv2d(512, 1024, kernel_size=(1, 1), stride=(1, 1), bias=False)
          (bn3): BatchNorm2d(1024, eps=1e-05, momentum=0.1, affine=True, track_running_stats=True)
          (relu): ReLU(inplace=True)
          (se_module): SEModule(
            (avg_pool): AdaptiveAvgPool2d(output_size=1)
            (fc1): Conv2d(1024, 64, kernel_size=(1, 1), stride=(1, 1))
            (relu): ReLU(inplace=True)
            (fc2): Conv2d(64, 1024, kernel_size=(1, 1), stride=(1, 1))
            (sigmoid): Sigmoid()
          )
        )
        (11): SEResNeXtBottleneck(
          (conv1): Conv2d(1024, 512, kernel_size=(1, 1), stride=(1, 1), bias=False)
          (bn1): BatchNorm2d(512, eps=1e-05, momentum=0.1, affine=True, track_running_stats=True)
          (conv2): Conv2d(512, 512, kernel_size=(3, 3), stride=(1, 1), padding=(1, 1), groups=32, bias=False)
          (bn2): BatchNorm2d(512, eps=1e-05, momentum=0.1, affine=True, track_running_stats=True)
          (conv3): Conv2d(512, 1024, kernel_size=(1, 1), stride=(1, 1), bias=False)
          (bn3): BatchNorm2d(1024, eps=1e-05, momentum=0.1, affine=True, track_running_stats=True)
          (relu): ReLU(inplace=True)
          (se_module): SEModule(
            (avg_pool): AdaptiveAvgPool2d(output_size=1)
            (fc1): Conv2d(1024, 64, kernel_size=(1, 1), stride=(1, 1))
            (relu): ReLU(inplace=True)
            (fc2): Conv2d(64, 1024, kernel_size=(1, 1), stride=(1, 1))
            (sigmoid): Sigmoid()
          )
        )
        (12): SEResNeXtBottleneck(
          (conv1): Conv2d(1024, 512, kernel_size=(1, 1), stride=(1, 1), bias=False)
          (bn1): BatchNorm2d(512, eps=1e-05, momentum=0.1, affine=True, track_running_stats=True)
          (conv2): Conv2d(512, 512, kernel_size=(3, 3), stride=(1, 1), padding=(1, 1), groups=32, bias=False)
          (bn2): BatchNorm2d(512, eps=1e-05, momentum=0.1, affine=True, track_running_stats=True)
          (conv3): Conv2d(512, 1024, kernel_size=(1, 1), stride=(1, 1), bias=False)
          (bn3): BatchNorm2d(1024, eps=1e-05, momentum=0.1, affine=True, track_running_stats=True)
          (relu): ReLU(inplace=True)
          (se_module): SEModule(
            (avg_pool): AdaptiveAvgPool2d(output_size=1)
            (fc1): Conv2d(1024, 64, kernel_size=(1, 1), stride=(1, 1))
            (relu): ReLU(inplace=True)
            (fc2): Conv2d(64, 1024, kernel_size=(1, 1), stride=(1, 1))
            (sigmoid): Sigmoid()
          )
        )
        (13): SEResNeXtBottleneck(
          (conv1): Conv2d(1024, 512, kernel_size=(1, 1), stride=(1, 1), bias=False)
          (bn1): BatchNorm2d(512, eps=1e-05, momentum=0.1, affine=True, track_running_stats=True)
          (conv2): Conv2d(512, 512, kernel_size=(3, 3), stride=(1, 1), padding=(1, 1), groups=32, bias=False)
          (bn2): BatchNorm2d(512, eps=1e-05, momentum=0.1, affine=True, track_running_stats=True)
          (conv3): Conv2d(512, 1024, kernel_size=(1, 1), stride=(1, 1), bias=False)
          (bn3): BatchNorm2d(1024, eps=1e-05, momentum=0.1, affine=True, track_running_stats=True)
          (relu): ReLU(inplace=True)
          (se_module): SEModule(
            (avg_pool): AdaptiveAvgPool2d(output_size=1)
            (fc1): Conv2d(1024, 64, kernel_size=(1, 1), stride=(1, 1))
            (relu): ReLU(inplace=True)
            (fc2): Conv2d(64, 1024, kernel_size=(1, 1), stride=(1, 1))
            (sigmoid): Sigmoid()
          )
        )
        (14): SEResNeXtBottleneck(
          (conv1): Conv2d(1024, 512, kernel_size=(1, 1), stride=(1, 1), bias=False)
          (bn1): BatchNorm2d(512, eps=1e-05, momentum=0.1, affine=True, track_running_stats=True)
          (conv2): Conv2d(512, 512, kernel_size=(3, 3), stride=(1, 1), padding=(1, 1), groups=32, bias=False)
          (bn2): BatchNorm2d(512, eps=1e-05, momentum=0.1, affine=True, track_running_stats=True)
          (conv3): Conv2d(512, 1024, kernel_size=(1, 1), stride=(1, 1), bias=False)
          (bn3): BatchNorm2d(1024, eps=1e-05, momentum=0.1, affine=True, track_running_stats=True)
          (relu): ReLU(inplace=True)
          (se_module): SEModule(
            (avg_pool): AdaptiveAvgPool2d(output_size=1)
            (fc1): Conv2d(1024, 64, kernel_size=(1, 1), stride=(1, 1))
            (relu): ReLU(inplace=True)
            (fc2): Conv2d(64, 1024, kernel_size=(1, 1), stride=(1, 1))
            (sigmoid): Sigmoid()
          )
        )
        (15): SEResNeXtBottleneck(
          (conv1): Conv2d(1024, 512, kernel_size=(1, 1), stride=(1, 1), bias=False)
          (bn1): BatchNorm2d(512, eps=1e-05, momentum=0.1, affine=True, track_running_stats=True)
          (conv2): Conv2d(512, 512, kernel_size=(3, 3), stride=(1, 1), padding=(1, 1), groups=32, bias=False)
          (bn2): BatchNorm2d(512, eps=1e-05, momentum=0.1, affine=True, track_running_stats=True)
          (conv3): Conv2d(512, 1024, kernel_size=(1, 1), stride=(1, 1), bias=False)
          (bn3): BatchNorm2d(1024, eps=1e-05, momentum=0.1, affine=True, track_running_stats=True)
          (relu): ReLU(inplace=True)
          (se_module): SEModule(
            (avg_pool): AdaptiveAvgPool2d(output_size=1)
            (fc1): Conv2d(1024, 64, kernel_size=(1, 1), stride=(1, 1))
            (relu): ReLU(inplace=True)
            (fc2): Conv2d(64, 1024, kernel_size=(1, 1), stride=(1, 1))
            (sigmoid): Sigmoid()
          )
        )
        (16): SEResNeXtBottleneck(
          (conv1): Conv2d(1024, 512, kernel_size=(1, 1), stride=(1, 1), bias=False)
          (bn1): BatchNorm2d(512, eps=1e-05, momentum=0.1, affine=True, track_running_stats=True)
          (conv2): Conv2d(512, 512, kernel_size=(3, 3), stride=(1, 1), padding=(1, 1), groups=32, bias=False)
          (bn2): BatchNorm2d(512, eps=1e-05, momentum=0.1, affine=True, track_running_stats=True)
          (conv3): Conv2d(512, 1024, kernel_size=(1, 1), stride=(1, 1), bias=False)
          (bn3): BatchNorm2d(1024, eps=1e-05, momentum=0.1, affine=True, track_running_stats=True)
          (relu): ReLU(inplace=True)
          (se_module): SEModule(
            (avg_pool): AdaptiveAvgPool2d(output_size=1)
            (fc1): Conv2d(1024, 64, kernel_size=(1, 1), stride=(1, 1))
            (relu): ReLU(inplace=True)
            (fc2): Conv2d(64, 1024, kernel_size=(1, 1), stride=(1, 1))
            (sigmoid): Sigmoid()
          )
        )
        (17): SEResNeXtBottleneck(
          (conv1): Conv2d(1024, 512, kernel_size=(1, 1), stride=(1, 1), bias=False)
          (bn1): BatchNorm2d(512, eps=1e-05, momentum=0.1, affine=True, track_running_stats=True)
          (conv2): Conv2d(512, 512, kernel_size=(3, 3), stride=(1, 1), padding=(1, 1), groups=32, bias=False)
          (bn2): BatchNorm2d(512, eps=1e-05, momentum=0.1, affine=True, track_running_stats=True)
          (conv3): Conv2d(512, 1024, kernel_size=(1, 1), stride=(1, 1), bias=False)
          (bn3): BatchNorm2d(1024, eps=1e-05, momentum=0.1, affine=True, track_running_stats=True)
          (relu): ReLU(inplace=True)
          (se_module): SEModule(
            (avg_pool): AdaptiveAvgPool2d(output_size=1)
            (fc1): Conv2d(1024, 64, kernel_size=(1, 1), stride=(1, 1))
            (relu): ReLU(inplace=True)
            (fc2): Conv2d(64, 1024, kernel_size=(1, 1), stride=(1, 1))
            (sigmoid): Sigmoid()
          )
        )
        (18): SEResNeXtBottleneck(
          (conv1): Conv2d(1024, 512, kernel_size=(1, 1), stride=(1, 1), bias=False)
          (bn1): BatchNorm2d(512, eps=1e-05, momentum=0.1, affine=True, track_running_stats=True)
          (conv2): Conv2d(512, 512, kernel_size=(3, 3), stride=(1, 1), padding=(1, 1), groups=32, bias=False)
          (bn2): BatchNorm2d(512, eps=1e-05, momentum=0.1, affine=True, track_running_stats=True)
          (conv3): Conv2d(512, 1024, kernel_size=(1, 1), stride=(1, 1), bias=False)
          (bn3): BatchNorm2d(1024, eps=1e-05, momentum=0.1, affine=True, track_running_stats=True)
          (relu): ReLU(inplace=True)
          (se_module): SEModule(
            (avg_pool): AdaptiveAvgPool2d(output_size=1)
            (fc1): Conv2d(1024, 64, kernel_size=(1, 1), stride=(1, 1))
            (relu): ReLU(inplace=True)
            (fc2): Conv2d(64, 1024, kernel_size=(1, 1), stride=(1, 1))
            (sigmoid): Sigmoid()
          )
        )
        (19): SEResNeXtBottleneck(
          (conv1): Conv2d(1024, 512, kernel_size=(1, 1), stride=(1, 1), bias=False)
          (bn1): BatchNorm2d(512, eps=1e-05, momentum=0.1, affine=True, track_running_stats=True)
          (conv2): Conv2d(512, 512, kernel_size=(3, 3), stride=(1, 1), padding=(1, 1), groups=32, bias=False)
          (bn2): BatchNorm2d(512, eps=1e-05, momentum=0.1, affine=True, track_running_stats=True)
          (conv3): Conv2d(512, 1024, kernel_size=(1, 1), stride=(1, 1), bias=False)
          (bn3): BatchNorm2d(1024, eps=1e-05, momentum=0.1, affine=True, track_running_stats=True)
          (relu): ReLU(inplace=True)
          (se_module): SEModule(
            (avg_pool): AdaptiveAvgPool2d(output_size=1)
            (fc1): Conv2d(1024, 64, kernel_size=(1, 1), stride=(1, 1))
            (relu): ReLU(inplace=True)
            (fc2): Conv2d(64, 1024, kernel_size=(1, 1), stride=(1, 1))
            (sigmoid): Sigmoid()
          )
        )
        (20): SEResNeXtBottleneck(
          (conv1): Conv2d(1024, 512, kernel_size=(1, 1), stride=(1, 1), bias=False)
          (bn1): BatchNorm2d(512, eps=1e-05, momentum=0.1, affine=True, track_running_stats=True)
          (conv2): Conv2d(512, 512, kernel_size=(3, 3), stride=(1, 1), padding=(1, 1), groups=32, bias=False)
          (bn2): BatchNorm2d(512, eps=1e-05, momentum=0.1, affine=True, track_running_stats=True)
          (conv3): Conv2d(512, 1024, kernel_size=(1, 1), stride=(1, 1), bias=False)
          (bn3): BatchNorm2d(1024, eps=1e-05, momentum=0.1, affine=True, track_running_stats=True)
          (relu): ReLU(inplace=True)
          (se_module): SEModule(
            (avg_pool): AdaptiveAvgPool2d(output_size=1)
            (fc1): Conv2d(1024, 64, kernel_size=(1, 1), stride=(1, 1))
            (relu): ReLU(inplace=True)
            (fc2): Conv2d(64, 1024, kernel_size=(1, 1), stride=(1, 1))
            (sigmoid): Sigmoid()
          )
        )
        (21): SEResNeXtBottleneck(
          (conv1): Conv2d(1024, 512, kernel_size=(1, 1), stride=(1, 1), bias=False)
          (bn1): BatchNorm2d(512, eps=1e-05, momentum=0.1, affine=True, track_running_stats=True)
          (conv2): Conv2d(512, 512, kernel_size=(3, 3), stride=(1, 1), padding=(1, 1), groups=32, bias=False)
          (bn2): BatchNorm2d(512, eps=1e-05, momentum=0.1, affine=True, track_running_stats=True)
          (conv3): Conv2d(512, 1024, kernel_size=(1, 1), stride=(1, 1), bias=False)
          (bn3): BatchNorm2d(1024, eps=1e-05, momentum=0.1, affine=True, track_running_stats=True)
          (relu): ReLU(inplace=True)
          (se_module): SEModule(
            (avg_pool): AdaptiveAvgPool2d(output_size=1)
            (fc1): Conv2d(1024, 64, kernel_size=(1, 1), stride=(1, 1))
            (relu): ReLU(inplace=True)
            (fc2): Conv2d(64, 1024, kernel_size=(1, 1), stride=(1, 1))
            (sigmoid): Sigmoid()
          )
        )
        (22): SEResNeXtBottleneck(
          (conv1): Conv2d(1024, 512, kernel_size=(1, 1), stride=(1, 1), bias=False)
          (bn1): BatchNorm2d(512, eps=1e-05, momentum=0.1, affine=True, track_running_stats=True)
          (conv2): Conv2d(512, 512, kernel_size=(3, 3), stride=(1, 1), padding=(1, 1), groups=32, bias=False)
          (bn2): BatchNorm2d(512, eps=1e-05, momentum=0.1, affine=True, track_running_stats=True)
          (conv3): Conv2d(512, 1024, kernel_size=(1, 1), stride=(1, 1), bias=False)
          (bn3): BatchNorm2d(1024, eps=1e-05, momentum=0.1, affine=True, track_running_stats=True)
          (relu): ReLU(inplace=True)
          (se_module): SEModule(
            (avg_pool): AdaptiveAvgPool2d(output_size=1)
            (fc1): Conv2d(1024, 64, kernel_size=(1, 1), stride=(1, 1))
            (relu): ReLU(inplace=True)
            (fc2): Conv2d(64, 1024, kernel_size=(1, 1), stride=(1, 1))
            (sigmoid): Sigmoid()
          )
        )
      )
      (layer4): Sequential(
        (0): SEResNeXtBottleneck(
          (conv1): Conv2d(1024, 1024, kernel_size=(1, 1), stride=(1, 1), bias=False)
          (bn1): BatchNorm2d(1024, eps=1e-05, momentum=0.1, affine=True, track_running_stats=True)
          (conv2): Conv2d(1024, 1024, kernel_size=(3, 3), stride=(2, 2), padding=(1, 1), groups=32, bias=False)
          (bn2): BatchNorm2d(1024, eps=1e-05, momentum=0.1, affine=True, track_running_stats=True)
          (conv3): Conv2d(1024, 2048, kernel_size=(1, 1), stride=(1, 1), bias=False)
          (bn3): BatchNorm2d(2048, eps=1e-05, momentum=0.1, affine=True, track_running_stats=True)
          (relu): ReLU(inplace=True)
          (se_module): SEModule(
            (avg_pool): AdaptiveAvgPool2d(output_size=1)
            (fc1): Conv2d(2048, 128, kernel_size=(1, 1), stride=(1, 1))
            (relu): ReLU(inplace=True)
            (fc2): Conv2d(128, 2048, kernel_size=(1, 1), stride=(1, 1))
            (sigmoid): Sigmoid()
          )
          (downsample): Sequential(
            (0): Conv2d(1024, 2048, kernel_size=(1, 1), stride=(2, 2), bias=False)
            (1): BatchNorm2d(2048, eps=1e-05, momentum=0.1, affine=True, track_running_stats=True)
          )
        )
        (1): SEResNeXtBottleneck(
          (conv1): Conv2d(2048, 1024, kernel_size=(1, 1), stride=(1, 1), bias=False)
          (bn1): BatchNorm2d(1024, eps=1e-05, momentum=0.1, affine=True, track_running_stats=True)
          (conv2): Conv2d(1024, 1024, kernel_size=(3, 3), stride=(1, 1), padding=(1, 1), groups=32, bias=False)
          (bn2): BatchNorm2d(1024, eps=1e-05, momentum=0.1, affine=True, track_running_stats=True)
          (conv3): Conv2d(1024, 2048, kernel_size=(1, 1), stride=(1, 1), bias=False)
          (bn3): BatchNorm2d(2048, eps=1e-05, momentum=0.1, affine=True, track_running_stats=True)
          (relu): ReLU(inplace=True)
          (se_module): SEModule(
            (avg_pool): AdaptiveAvgPool2d(output_size=1)
            (fc1): Conv2d(2048, 128, kernel_size=(1, 1), stride=(1, 1))
            (relu): ReLU(inplace=True)
            (fc2): Conv2d(128, 2048, kernel_size=(1, 1), stride=(1, 1))
            (sigmoid): Sigmoid()
          )
        )
        (2): SEResNeXtBottleneck(
          (conv1): Conv2d(2048, 1024, kernel_size=(1, 1), stride=(1, 1), bias=False)
          (bn1): BatchNorm2d(1024, eps=1e-05, momentum=0.1, affine=True, track_running_stats=True)
          (conv2): Conv2d(1024, 1024, kernel_size=(3, 3), stride=(1, 1), padding=(1, 1), groups=32, bias=False)
          (bn2): BatchNorm2d(1024, eps=1e-05, momentum=0.1, affine=True, track_running_stats=True)
          (conv3): Conv2d(1024, 2048, kernel_size=(1, 1), stride=(1, 1), bias=False)
          (bn3): BatchNorm2d(2048, eps=1e-05, momentum=0.1, affine=True, track_running_stats=True)
          (relu): ReLU(inplace=True)
          (se_module): SEModule(
            (avg_pool): AdaptiveAvgPool2d(output_size=1)
            (fc1): Conv2d(2048, 128, kernel_size=(1, 1), stride=(1, 1))
            (relu): ReLU(inplace=True)
            (fc2): Conv2d(128, 2048, kernel_size=(1, 1), stride=(1, 1))
            (sigmoid): Sigmoid()
          )
        )
      )
      (avg_pool): AdaptiveAvgPool2d(output_size=1)
      (last_linear): Sequential()
    )
    (fea_bn): BatchNorm1d(2048, eps=1e-05, momentum=0.1, affine=True, track_running_stats=True)
    (margin_head): MarginHead(
      (fc): MagrginLinear()
    )
    (binary_head): BinaryHead(
      (fc): Sequential(
        (0): Linear(in_features=2048, out_features=10008, bias=True)
      )
    )
  )
)
change lr: 0.0001
change hard_ratio: 0.01
NW ratio!!!!!!! : 0.25
NW id num!!!!!! : 2
66656
/usr/local/lib/python3.6/dist-packages/torch/nn/_reduction.py:43: UserWarning: size_average and reduce args will be deprecated, please use reduction='none' instead.
  warnings.warn(warning.format(ret))
/usr/local/lib/python3.6/dist-packages/torch/nn/_reduction.py:43: UserWarning: size_average and reduce args will be deprecated, please use reduction='mean' instead.
…
